Nuovo/output/unet_model.pth (torch, 941547 bytes, 25 tensors)

weight f4 [32, 10, 2, 2]
0	0xbe1536d0	-0.1457169
1	0xbcd79998	-0.026318356
2	0xbc75534f	-0.014973476
3	0xbd34c696	-0.0441347
4	0x3cd07664	0.025447078
5	0x3cfeaad7	0.031087322
6	0xbe3b0b9f	-0.18266152
7	0xbc24a38a	-0.010048756
8	0xbdc84eb5	-0.09780637
9	0xbd7b5f4d	-0.061370183
10	0xbdc007d1	-0.09376491
11	0xbe1b3225	-0.15155847
12	0xbcd71880	-0.0262568
13	0xbe90d69e	-0.2828874
14	0xbe10a995	-0.1412719
15	0xbe54da4a	-0.20786396
16	0x3dadb4f9	0.084817834
17	0xbd77af1b	-0.060469728
18	0xbdab2ae7	-0.08357792
19	0xbd59c442	-0.05316568
20	0x3d619c88	0.05508092
21	0x3d66c31a	0.056338407
22	0xbdad0dbe	-0.08449887
23	0x3d753320	0.05986321
24	0xbcaaf7bb	-0.02087008
25	0xbd22de01	-0.0397625
26	0xbe260230	-0.16211772
27	0xbdb1d176	-0.0868253
28	0x3b01d587	0.001981111
29	0x3be15f57	0.0068778205
30	0xbd638d5e	-0.05555474
31	0xbda55d42	-0.08074428
32	0xbe0f3f0a	-0.13988891
33	0x3dd16e1c	0.1022608
34	0xbe3df4de	-0.1855044
35	0xbe465f96	-0.193724
36	0x3de1d476	0.11026852
37	0xbdec4eba	-0.115384534
38	0x3cc5fcbf	0.02416837
39	0xbc09e8bd	-0.008417306
40	0xbdfbb487	-0.12290292
41	0xbdb47a03	-0.088123344
42	0xbd4db6cb	-0.050223153
43	0xbdaf7abc	-0.085683316
44	0xbde2b851	-0.11070312
45	0xbe17df6e	-0.14831325
46	0x3db055ac	0.086100906
47	0xbd33dcb3	-0.043911647
48	0xbd8e9953	-0.06962838
49	0xbd65aa6e	-0.056070738
50	0x3d8ce7b0	0.068801284
51	0x3d95e97e	0.07319926
52	0x3d6e5853	0.0581897
53	0xbd9d1f18	-0.07671946
54	0xbceb56f6	-0.02872799
55	0xbd7b06fa	-0.06128595
56	0xbd2085e6	-0.039190196
57	0xbd5ec739	-0.054389212
58	0x38e1b523	0.000107625754
59	0xbd3ab05a	-0.04557834
60	0xbd484806	-0.048896812
61	0xbe1c2981	-0.15250207
62	0xbb99e4c3	-0.00469646
63	0xbcf10050	-0.029419094
64	0xbb33ae2d	-0.002741705
65	0xbdaa9d01	-0.08330727
66	0x3dff504c	0.12466487
67	0xbe047692	-0.12935856
68	0x3daf5ba7	0.08562403
69	0x3e0eed04	0.13957602
70	0xbbb56519	-0.0055357334
71	0xbd939986	-0.07207017
72	0xbe0622ae	-0.13099167
73	0x3e2072f3	0.1566885
74	0xbd66e9d7	-0.05637535
75	0xbd6a0841	-0.057136778
76	0xbc272476	-0.010201564
77	0xbd812424	-0.063057214
78	0x3db25098	0.08706778
79	0xbe1aeaa8	-0.15128577
80	0xbcad425b	-0.021149805
81	0x3e16e6e9	0.14736523
82	0xbd9efccc	-0.07763061
83	0xbdd8cba1	-0.10585714
84	0xbbbed2e1	-0.0058234786
85	0x3d44cb41	0.0480454
86	0x3d98b930	0.07457197
87	0x3dba3415	0.09091965
88	0x3ac11356	0.0014730494
89	0x3d928f99	0.07156295
90	0x3decc6b4	0.11561337
91	0xbb82366a	-0.003973772
92	0xbe304a90	-0.17215943
93	0xbe0f3e80	-0.13988686
94	0xbd649595	-0.055806715
95	0x3d8a53a1	0.06754232
96	0xbe2870a1	-0.16449215
97	0x3da55a21	0.08073831
98	0xbda361cf	-0.0797764
99	0xbcc99831	-0.024608703
100	0x3d7c25bc	0.061559424
101	0xbc779f2a	-0.015113631
102	0xbdb1b2a3	-0.086766504
103	0xbdac9d86	-0.08428483
104	0xbd884abd	-0.0665488
105	0x3e00f70a	0.12594238
106	0xbe190021	-0.14941455
107	0x3df3ccbc	0.11904284
108	0xbdbb22d5	-0.09137503
109	0x3d3c07b6	0.04590579
110	0x3d948824	0.07252529
111	0x3e11c91a	0.1423687
112	0xbe1a6383	-0.15077023
113	0xbde79986	-0.11308579
114	0xbd822ee4	-0.063566
115	0x3cc0d985	0.023541221
116	0xbdb7743b	-0.08957716
117	0xbc55c3e9	-0.013047197
118	0x3e0c7cbc	0.13719457
119	0x3d8ecfb5	0.06973211
120	0x3e1adc9f	0.15123223
121	0xbaf43559	-0.0018631621
122	0x3e781bf0	0.24229407
123	0xbd549558	-0.051900238
124	0xbd913eee	-0.07092081
125	0x3dd36c7c	0.10323426
126	0x3e284bb6	0.16435131
127	0x3dfb254a	0.12262972
128	0x3e113e7c	0.14183992
129	0x3da3b215	0.07992951
130	0x3df597fe	0.11991881
131	0x3d9cadd0	0.076503396
132	0xbd2d1e0d	-0.042264987
133	0xbcf741e5	-0.030182788
134	0xbe618957	-0.22025047
135	0xbc879bf2	-0.016553853
136	0x3d9b8c14	0.07595077
137	0x3dc1faf7	0.09471696
138	0xbd985347	-0.07437759
139	0x3d97ff98	0.074217975
140	0xbe02e466	-0.1278244
141	0x3d26ab4d	0.04069071
142	0x3e19b26f	0.15009473
143	0x3d12f73a	0.035880305
144	0xbdb47016	-0.08810441
145	0x3c8f4946	0.017490994
146	0x3d875a04	0.06608966
147	0xbd5b6b22	-0.053568967
148	0x3db49b79	0.088187166
149	0x3d5c0fc4	0.053725973
150	0x3d0380e2	0.032105334
151	0xbd335c03	-0.04378892
152	0xbc07ba31	-0.008284138
153	0x3da8dfe8	0.08245832
154	0x3dff8702	0.124769226
155	0xbd3981a8	-0.045289665
156	0xbd81075b	-0.06300231
157	0x3dc5bb1e	0.096548304
158	0xbd60a82b	-0.054847877
159	0x3d51bccb	0.051205438
160	0x3e538824	0.20657402
161	0xbc41d907	-0.0118315285
162	0x3e503d39	0.20335855
163	0x3d9d8e4f	0.07693159
164	0x3c7c1089	0.015384802
165	0xbdc68e3f	-0.096951
166	0xbd63f787	-0.055655982
167	0xbdd68115	-0.10473839
168	0x3d5fc349	0.054629598
169	0x3e419add	0.18906732
170	0x3de511cd	0.11185036
171	0x3e28a80e	0.16470358
172	0xbdaef75c	-0.08543274
173	0x3c7d767b	0.0154701425
174	0x3ca29ac6	0.019849192
175	0xbc9f832a	-0.019471724
176	0x3d8b9ea3	0.06817367
177	0xba0d48d8	-0.0005389578
178	0xbde7efb9	-0.1132502
179	0xbe1d69a7	-0.15372334
180	0x3b6dcf99	0.0036287068
181	0x3dce9176	0.10086338
182	0x3dc17960	0.094469786
183	0xbdc08844	-0.094009906
184	0x3de81e1d	0.11333869
185	0xbdf612af	-0.12015282
186	0xbe02b748	-0.12765229
187	0x3e1e8010	0.1547854
188	0x3dfcfb79	0.12352652
189	0x3e244321	0.16041233
190	0x3e2bb302	0.16767505
191	0xbbc34eb0	-0.005960308
192	0x3ba0ecf0	0.0049110577
193	0xbdf2c36e	-0.118536815
194	0xbd8954ba	-0.067056134
195	0x3d821e9b	0.06353494
196	0x3d5cbb4c	0.053889558
197	0x3d2a08f2	0.041512437
198	0x3c1b5f9a	0.009483242
199	0xbe50c2c4	-0.20386797
200	0xbdd6d294	-0.10489383
201	0xbdf618b9	-0.12016434
202	0xbd58d8fe	-0.052941315
203	0x3e177913	0.1479228
204	0x3d76a940	0.060220003
205	0xbd9e6ac7	-0.0773521
206	0x3d721cc8	0.05910948
207	0x3d6057dd	0.054771293
208	0x3e2157da	0.15756169
209	0x3c5e1ddd	0.013556925
210	0xbd7c4cf8	-0.06159684
211	0xbdca6324	-0.09882191
212	0x3dd5a8be	0.10432576
213	0x3ca80f80	0.020515203
214	0xbddd0540	-0.10792017
215	0xbdf0fc73	-0.11766901
216	0xbd5dc404	-0.054142013
217	0x3db6c156	0.08923595
218	0x3d290acd	0.041270066
219	0x3d84146d	0.064492084
220	0x3dad6f17	0.08468454
221	0x3c972676	0.018450957
222	0x3b82a977	0.003987487
223	0x3d83a0e2	0.0642717
224	0xbe181e56	-0.14855322
225	0x3e186795	0.14883263
226	0x3d90243b	0.070381604
227	0xbd70cc6a	-0.058788694
228	0xbd0c125f	-0.034197208
229	0xbd3c2c43	-0.04594065
230	0xbda39085	-0.07986549
231	0xbdece103	-0.11566355
232	0xbcf1e35d	-0.02952736
233	0x3df34be7	0.118797116
234	0xbe12fc81	-0.14354135
235	0xbe127b01	-0.14304735
236	0x3d0b5128	0.034012944
237	0xbddeb090	-0.108735204
238	0x3de3dcce	0.111260995
239	0x3e1efb5a	0.1552557
240	0xbe1aa012	-0.15100124
241	0xbd93cf39	-0.07217259
242	0x3a4ea90c	0.00078834663
243	0x3cb3994e	0.021923687
244	0x3d8db050	0.069183946
245	0xbdd62b2f	-0.10457455
246	0xbc318367	-0.010834551
247	0xbe1fb031	-0.15594555
248	0xbd873b62	-0.06603123
249	0xbd9fa4e8	-0.07795125
250	0xbe2b90ff	-0.1675453
251	0x3da4abf5	0.08040611
252	0x3d9a8a7e	0.075459465
253	0xbccc0f34	-0.024909593
254	0xbe105228	-0.1409384
255	0xbda3575f	-0.07975649

bias f4 [32]
0	0x3e13299e	0.14371344
1	0xbdb55b95	-0.088553585
2	0x3c9f5bd3	0.019452965
3	0xbd882e4f	-0.06649458
4	0xbdadc7a9	-0.08485348
5	0xbdf9a31a	-0.12189312
6	0x3d58df36	0.052947246
7	0xbc6bdbd3	-0.014395672
8	0x3e0f0426	0.13966426
9	0xbe1fa448	-0.15590012
10	0x3b93c4c0	0.0045095384
11	0xbe195257	-0.14972816
12	0x3d3c276c	0.045936033
13	0xbe161770	-0.14657378
14	0xbdeb153d	-0.1147866
15	0xbd03a7ca	-0.032142438
16	0xbe0c4e32	-0.13701704
17	0x3d5ee5af	0.054418262
18	0x3da3aebb	0.079923116
19	0xbbeead6c	-0.007283857
20	0xbd84ab95	-0.06478039
21	0xbd737f69	-0.05944768
22	0x3dac53f3	0.084144495
23	0xbbf6b52e	-0.0075289225
24	0x3dc3eedf	0.095670454
25	0x3e0b8b95	0.13627465
26	0x3e0ae39f	0.13563393
27	0x3c204393	0.009781736
28	0x3db03d49	0.08605439
29	0x3d04e8c3	0.03244854
30	0xbdc5838b	-0.096442305
31	0x3e08389d	0.13302846

weight f4 [32, 32, 2, 2]
0	0x3d8bf792	0.0683433
1	0x3dad4a13	0.08461394
2	0x3dbd963f	0.09257173
3	0xbd374c28	-0.044750363
4	0x3cf1e4a8	0.029527977
5	0xbc165301	-0.009175063
6	0xbd094da6	-0.033521317
7	0xbc6ed1d2	-0.014576392
8	0xbd3e9790	-0.04653126
9	0xbc2747d0	-0.0102099925
10	0xbc531b05	-0.01288486
11	0xbc57be2d	-0.0131679
12	0xbcd4fe2e	-0.026000109
13	0xbd905948	-0.07048279
14	0x3d733ec7	0.05938604
15	0x3da25914	0.079271466
16	0x3c5545bd	0.013017115
17	0x3d4ba672	0.04971928
18	0xbd820170	-0.063479304
19	0xbc62d44c	-0.013844561
20	0xbc13d028	-0.009021796
21	0xbcf98e2b	-0.030463299
22	0x3aa6b404	0.0012718444
23	0xbd613007	-0.054977443
24	0xbd404a62	-0.046945937
25	0xbc190ad3	-0.00934096
26	0xbd28e4aa	-0.041233696
27	0xbcaf05c1	-0.021365048
28	0x3cb20545	0.021731028
29	0x3d89f57a	0.06736274
30	0xbd987a11	-0.07445157
31	0x3cb6daa1	0.022321047
32	0x3c7561ea	0.014976958
33	0xbda0f29f	-0.07858776
34	0xbcd27ddb	-0.025694778
35	0xbcb127b7	-0.021625383
36	0xbddf42ec	-0.10901436
37	0xbe0507aa	-0.12991205
38	0xbde9fb29	-0.11424858
39	0xbe2f8f72	-0.17144564
40	0x3df65a67	0.12028962
41	0x3dd41b4a	0.103567675
42	0x3dbaac22	0.09114863
43	0x3dadf933	0.084947966
44	0x3d21d24b	0.03950719
45	0xbc746b20	-0.014918119
46	0xbcb4ca7b	-0.022069206
47	0x3d189e3c	0.03726028
48	0xbd7ae462	-0.06125296
49	0xbd12a4b2	-0.035801597
50	0xbc36cf87	-0.011157877
51	0xbd00a39d	-0.031406034
52	0xbd932e2e	-0.071865425
53	0x3d5e52c2	0.054278143
54	0x3da8446d	0.08216176
55	0x3dae45fb	0.085094415
56	0xbc6378da	-0.013883794
57	0xbbe6963f	-0.0070369537
58	0xbcbb3960	-0.022854507
59	0xbd1d442c	-0.038395092
60	0xbce46d1a	-0.027884055
61	0xbd7fee37	-0.06248304
62	0x3da90d0d	0.08254442
63	0xbdb70654	-0.08936754
64	0x3c895dd0	0.016768366
65	0x3cd29622	0.025706355
66	0x3d3da8fc	0.046303734
67	0x3d9d1ded	0.076717235
68	0x3d3e0583	0.046391975
69	0xbd15b8fe	-0.036553375
70	0x3d7b10d3	0.06129534
71	0xbca7101e	-0.020393427
72	0xbd3dd1a6	-0.046342514
73	0xbd27996a	-0.04091779
74	0xbd76a05a	-0.060211517
75	0x3d13cfd4	0.036086872
76	0x3ca7247f	0.020403145
77	0x3bdd5e90	0.0067556575
78	0x3cf9a23b	0.030472865
79	0xbd76764c	-0.06017141
80	0x3cfaa39f	0.030595599
81	0xbd6684db	-0.056279045
82	0x3d28ef9f	0.041244145
83	0x3d8ee1b2	0.06976642
84	0xbc013c1d	-0.007887867
85	0x3cad8c01	0.021184923
86	0x3d5d8c2f	0.054088768
87	0x3d955730	0.0729202
88	0xbca8087d	-0.02051186
89	0x3d9855d1	0.07438243
90	0x3cff0d86	0.031134378
91	0x3da85b87	0.082205825
92	0xbdb7d5d2	-0.0897633
93	0xbc80bb62	-0.015714351
94	0x3d18359f	0.037160512
95	0x3d8b35ec	0.06797394
96	0x3c9d4017	0.0191956
97	0x3d190fe1	0.03736866
98	0x3c914e1c	0.01773744
99	0x3c9d06e9	0.019168334
100	0xbb8cbaab	-0.0042947135
101	0xbd0f5e3b	-0.035001975
102	0xbd178ed2	-0.03700144
103	0x3d06c115	0.03289898
104	0xbca9f310	-0.020745784
105	0xbcfc77a1	-0.030818762
106	0xbd4f59c2	-0.05062271
107	0x3d7570ae	0.059921913
108	0xbd7750b9	-0.060379717
109	0x3d8d6b64	0.06905249
110	0xbd8374de	-0.06418775
111	0xbceea9cc	-0.0291337
112	0x3d36cfbd	0.04463171
113	0x3c6e75ad	0.014554423
114	0x3d534ed1	0.051588837
115	0x3c90ecaa	0.017690975
116	0x3d6790dd	0.056534637
117	0x3d2afc65	0.04174461
118	0xbda62e7a	-0.081143335
119	0x3d775d25	0.060391564
120	0xbda91d6d	-0.08257566
121	0xbd4f6e86	-0.050642513
122	0x3bbc3b07	0.0057443413
123	0x3da99f3c	0.08282325
124	0x3d6adc4a	0.05733899
125	0xbb50c3a2	-0.0031854887
126	0xbcc512f8	-0.024056897
127	0x3d81bf91	0.063353665
128	0xbdf575dc	-0.119853705
129	0xbd9b6db6	-0.07589285
130	0xbd69cad5	-0.0570782
131	0xbd4e6dbf	-0.05039763
132	0xbd864f60	-0.06558108
133	0x3d3f1f72	0.046660848
134	0x3db11bb7	0.08647864
135	0xbdaa22f7	-0.0830745
136	0x3d8024a7	0.06256991
137	0xbd9c66d2	-0.07636799
138	0x3c0dde3d	0.008658943
139	0x3ce39aae	0.027783718
140	0xbdd5aca7	-0.104333214
141	0xbd4a573f	-0.04939961
142	0x3d1dbb26	0.038508557
143	0x3c9923a1	0.018693747
144	0x3d279861	0.040916804
145	0x3c83ab93	0.016073024
146	0xbddb7f1d	-0.10717604
147	0xbdb6c795	-0.08924786
148	0xbd43ccb9	-0.04780266
149	0x3da8586e	0.082199916
150	0xbb429eeb	-0.0029696773
151	0x3c3f04a2	0.011658819
152	0xbd105238	-0.03523466
153	0xbd8f4356	-0.06995265
154	0xbdde2852	-0.10847534
155	0xbd8d5796	-0.06901471
156	0xbc34a323	-0.011025223
157	0xbbad6682	-0.005291761
158	0xbc879825	-0.01655204
159	0xbb817b6c	-0.0039514806
160	0x3d0e54fc	0.034749016
161	0xbd20d6cb	-0.039267343
162	0x3d016125	0.031586785
163	0xbd6d3967	-0.05791607
164	0xbd04787c	-0.032341465
165	0x3d7f0918	0.06226453
166	0xbd94c82b	-0.072647415
167	0x3c0a43b2	0.008438991
168	0xbc85a287	-0.01631285
169	0xbe0611e1	-0.13092758
170	0xbe28c344	-0.16480738
171	0xbbaea568	-0.0053297766
172	0xbda7ce9a	-0.08193703
173	0x3db1fe1b	0.08691045
174	0xbd9c6754	-0.07636896
175	0xbd6519f4	-0.055932954
176	0xbdbbbe3e	-0.09167145
177	0xbd6b1a56	-0.057398163
178	0x3d5f2274	0.054476216
179	0xbcb03b6c	-0.02151271
180	0x3c4705e0	0.012147397
181	0x3d3da087	0.04629567
182	0xbc8db749	-0.017299311
183	0xbd983d79	-0.074336
184	0xbd07e4b1	-0.03317708
185	0xbcc8a5bd	-0.024493093
186	0x3c6b1329	0.01434783
187	0x3d4f897f	0.050668236
188	0xbdb6ed54	-0.089319855
189	0xbd3a93f3	-0.04555125
190	0x3c318028	0.0108337775
191	0xbcbc7848	-0.023006573
192	0x3d9c29b2	0.0762514
193	0xbd04fee9	-0.032469664
194	0x3d97dfb8	0.07415718
195	0x3bd52cbc	0.006505577
196	0xbd0b8a8f	-0.034067687
197	0xbdb6cfbf	-0.08926343
198	0x3bc6bc66	0.0060649393
199	0x3d9266db	0.071485244
200	0x3c8eebaa	0.017446358
201	0x3cc5334e	0.024072316
202	0x3cd3e2b7	0.025864942
203	0xbd8539cd	-0.06505165
204	0xbd3f54dc	-0.046711788
205	0xbd78d958	-0.06075415
206	0xbd4991da	-0.04921136
207	0xbdb9e129	-0.09076149
208	0xbcb4b134	-0.022057153
209	0x3d8dcb07	0.0692349
210	0x3d9bf139	0.07614369
211	0x3d9a55df	0.0753591
212	0x3cbf673b	0.023364654
213	0xbd90c8ab	-0.070695244
214	0xbd4da8e5	-0.0502099
215	0xbcdbd8ba	-0.026836742
216	0xbdab4da4	-0.08364418
217	0xbdae9b97	-0.0852577
218	0x3d0f0daf	0.03492516
219	0x3c9a5884	0.018841036
220	0x3d00c708	0.03143981
221	0xbdb5491b	-0.088518344
222	0x3d31c311	0.04339892
223	0xbc03ca44	-0.008043829
224	0x3d5b511f	0.05354416
225	0xbda408cd	-0.08009491
226	0xbdc76846	-0.097366855
227	0x3d841cda	0.064508155
228	0xbd82516f	-0.063631885
229	0xbda49d3c	-0.080378026
230	0x3c8b7534	0.01702366
231	0xbdbeea92	-0.093220845
232	0x3d0936e5	0.033499617
233	0xbd3f32f7	-0.046679463
234	0x3d6c96f3	0.057761144
235	0x3da42d76	0.080164835
236	0x3d7e2345	0.062045354
237	0x3c7ddd9f	0.015494733
238	0xbd875245	-0.066074885
239	0x3d8da6e9	0.06916601
240	0xbb465fdd	-0.0030269541
241	0xbcb87a50	-0.02251926
242	0xbd98ca0d	-0.07460413
243	0xbd853cfc	-0.065057725
244	0xbdaac98c	-0.08339223
245	0xbd9564d3	-0.07294621
246	0xbca108d0	-0.019657522
247	0xbdb6a79b	-0.08918687
248	0x3d6dd858	0.05806765
249	0xbdab7b6d	-0.08373151
250	0xbcd2ebd2	-0.025747214
251	0xbcce7ed1	-0.025206955
252	0xbd39829b	-0.04529057
253	0x3c0c6a12	0.008570211
254	0xbaa57e68	-0.0012626173
255	0xbd2cad39	-0.042157385

bias f4 [32]
0	0x3d827bd9	0.06371278
1	0xbd64e9a2	-0.055886872
2	0x3c79dc9c	0.015250351
3	0x3cb6dc10	0.02232173
4	0xbc8c0200	-0.017090797
5	0xbdba2c78	-0.09090513
6	0x3c307aa4	0.010771427
7	0x3d7fb769	0.062430773
8	0xbd9c398b	-0.07628163
9	0xbcb43eb4	-0.022002555
10	0x3d4a1e63	0.049345385
11	0x3bcbb71e	0.0062168976
12	0xbda78694	-0.081799656
13	0xbb6d2e67	-0.0036190988
14	0x3d93f8eb	0.07225212
15	0xbd3c4e80	-0.0459733
16	0x3c0523dc	0.008126225
17	0x3d81bb28	0.06334525
18	0xbd6889d5	-0.056772072
19	0x3d9a56a1	0.075360544
20	0x3da27326	0.07932119
21	0xbd8124e0	-0.063058615
22	0x3d8dd549	0.069254465
23	0xbc561af5	-0.0130679505
24	0x3cb04663	0.021517938
25	0xbd39160e	-0.04518705
26	0xbdcba5bb	-0.0994372
27	0x3cbbba57	0.022916002
28	0x3ccff412	0.025384936
29	0xbcb85290	-0.022500306
30	0xbceef034	-0.029167272
31	0x3cfa18c4	0.030529387

weight f4 [64, 32, 2, 2]
0	0xbd24ca74	-0.040232137
1	0xbdb44566	-0.08802299
2	0xbd3cf794	-0.046134546
3	0xbe09b1ef	-0.13446783
4	0xbd327298	-0.043566316
5	0xbcfd5d36	-0.030928236
6	0x3dda0427	0.10645323
7	0xbc80bdf8	-0.015715584
8	0xbd7e3722	-0.062064297
9	0x3c763d42	0.015029253
10	0x3d9fb52d	0.077982284
11	0x3d5a09ae	0.053231888
12	0xbd0aa7ed	-0.033851553
13	0xbd2f550e	-0.042805724
14	0xbd5be06d	-0.053680826
15	0xbde11e6a	-0.10992129
16	0x3bb1ef05	0.0054301047
17	0x3c2ea6bf	0.010659873
18	0xbcc8fbe4	-0.024534173
19	0xbcde3b16	-0.027127784
20	0x3dee9575	0.116496004
21	0xbb9a60f0	-0.004711263
22	0x3d8389f3	0.06422796
23	0x3d3004e0	0.0429734
24	0x3cf16372	0.029466365
25	0x3dd64824	0.104629785
26	0xbd668980	-0.056283474
27	0x3dee31bf	0.11630582
28	0x3c196d9c	0.009364512
29	0xbdcdd7bc	-0.10050914
30	0xbd2e24ce	-0.04251557
31	0xbd899ac3	-0.067189716
32	0xbc4ba10f	-0.012428536
33	0x3dd8d3df	0.10587286
34	0xbcbdc93f	-0.02316725
35	0x3b350212	0.0027619642
36	0xbd794ceb	-0.06086437
37	0x3ac1c4b1	0.001478335
38	0x3d35a2dc	0.044344768
39	0xbda7b7aa	-0.08189328
40	0x3cb27289	0.02178313
41	0xbdc0f89d	-0.09422419
42	0xbde437a2	-0.111434236
43	0xbd8a28ed	-0.06746087
44	0x3d8c00ac	0.06836066
45	0x3e0d0e67	0.13775025
46	0xbcb0b9ee	-0.021573033
47	0x3d282ad8	0.041056484
48	0x3dcded19	0.100549884
49	0x3bcc6cac	0.0062385406
50	0x3e00895e	0.12552401
51	0x3d22f8f7	0.039788213
52	0xbc172ef0	-0.009227499
53	0xbd5467c8	-0.051856786
54	0x3d71c69e	0.059027307
55	0x3cd3995d	0.025829965
56	0xbcf498cd	-0.029858017
57	0xbc3b87a4	-0.011445913
58	0x3c24cdc3	0.010058823
59	0x3d03b6ea	0.032156862
60	0x3d3054c4	0.04304959
61	0x3d95f251	0.07321609
62	0x3de7ccf2	0.11318387
63	0x3cde557f	0.027140377
64	0xbd512049	-0.05105618
65	0xbd5f66a4	-0.054541245
66	0xbd76c35d	-0.060244907
67	0xbc82b7a4	-0.015956707
68	0x3cadfbeb	0.021238288
69	0x3cd0dbc7	0.025495423
70	0xbdf9551f	-0.12174439
71	0x3cd98e73	0.026557183
72	0xbc6b3fc3	-0.014358464
73	0xbc8b1bf9	-0.016981112
74	0x3dad3b93	0.084586285
75	0x3da4bcb7	0.08043807
76	0xbdfdf410	-0.12400067
77	0xbc901526	-0.01758821
78	0xbd89b4c6	-0.06723933
79	0x3c445949	0.011984178
80	0xbb0ee69e	-0.002180494
81	0x3c9a0562	0.018801395
82	0xbde0e25b	-0.10980674
83	0xbe0e5ba0	-0.1390214
84	0xbd3d4f71	-0.04621834
85	0x3de43bf1	0.111442454
86	0xbcd6fc43	-0.026243335
87	0xbd470e87	-0.04859784
88	0x3c08c940	0.008348763
89	0x3db223e4	0.08698252
90	0xbc139132	-0.009006785
91	0x3d854ae1	0.06508423
92	0x3d5aa1b1	0.053376857
93	0x3cc3ea83	0.023915535
94	0x3dc0d340	0.09415293
95	0xbd29030a	-0.041262664
96	0xbb7b8842	-0.0038380777
97	0xbd552283	-0.052034866
98	0xbd2f6453	-0.042820286
99	0x3dad4982	0.08461286
100	0x3cfd8c24	0.030950613
101	0x3de3708c	0.11105451
102	0xbd05aa29	-0.03263298
103	0x3dfa2a7c	0.122151345
104	0x3e1edb30	0.15513301
105	0x3d190325	0.037356514
106	0x3e2743c1	0.1633444
107	0x3df5774b	0.11985644
108	0x3db0d400	0.08634186
109	0x3d7c056f	0.06152862
110	0x3d224277	0.039614167
111	0xbd8ca55e	-0.06867479
112	0x3d5724f3	0.052525472
113	0xbd29db2a	-0.041468777
114	0xbd563906	-0.052300476
115	0x3d80081a	0.06251545
116	0xbdc09635	-0.0940365
117	0x3d346a53	0.04404671
118	0xbd23a249	-0.03994969
119	0xbc205d4c	-0.009787869
120	0xbd980766	-0.07423286
121	0x3d181573	0.03712983
122	0x3cf9d0db	0.030495098
123	0x3cf9249b	0.030412963
124	0xbd07b5cb	-0.033132356
125	0xbca7bd5b	-0.020476034
126	0x3bf4079e	0.007447197
127	0xbe1021cb	-0.14075391
128	0x3db003f6	0.085945055
129	0xbd72ae93	-0.05924852
130	0x3d03e04f	0.03219634
131	0xbd519ac2	-0.05117298
132	0xbd6184ac	-0.055058166
133	0xbd188a71	-0.037241403
134	0xbd2336e5	-0.039847273
135	0xbdbb7279	-0.09152693
136	0x3cc1ff56	0.023681324
137	0xbda6b433	-0.08139839
138	0x3d818660	0.06324458
139	0x3d98b366	0.074560925
140	0x3d8c174c	0.06840381
141	0x3d95720c	0.07297143
142	0xbc8da0a5	-0.017288515
143	0xbbe064da	-0.00684796
144	0xbc6ae93e	-0.014337836
145	0xbd74f5e5	-0.059804816
146	0xbd9a10ec	-0.07522759
147	0xbd3aa6c2	-0.04556919
148	0xbcecfe1b	-0.02892976
149	0xbd4d1be7	-0.050075438
150	0x3d134ad9	0.035960052
151	0xbd8aa65f	-0.06770014
152	0xbc49b35b	-0.012310828
153	0xbdc06e66	-0.09396057
154	0x3d0cc6cd	0.03436928
155	0xbd21248f	-0.039341506
156	0x3d71f136	0.059067927
157	0x3d7904d8	0.060795635
158	0x3bbd25cf	0.0057723294
159	0xbd81b0ff	-0.063325875
160	0xbd32d4b0	-0.043659866
161	0xbd5f3824	-0.0544969
162	0xbd46fc37	-0.048580375
163	0x3cf6d1fd	0.030129427
164	0xbda71b1c	-0.081594676
165	0x3d661057	0.056167927
166	0xbc2dc7f7	-0.010606757
167	0x3d3bb28c	0.045824572
168	0x3dad63bd	0.08466289
169	0x3d86a226	0.06573896
170	0x3dbd6d45	0.09249357
171	0x3db42c28	0.08797485
172	0xbd63261a	-0.05545626
173	0xbd9f735b	-0.07785674
174	0x3d787b0e	0.06066423
175	0x3cea5df1	0.028609248
176	0x3cd2f8a9	0.025753336
177	0xbdb1332f	-0.086523406
178	0xbdb22f0f	-0.08700382
179	0x3d7c9970	0.061669767
180	0x3d153d57	0.03643545
181	0xbda0fdb9	-0.07860894
182	0x3d82b846	0.063828036
183	0x3d7ec27b	0.06219719
184	0xbc94083f	-0.018070338
185	0x3d8aa3f5	0.067695536
186	0x3d415f07	0.047209766
187	0xbd58eada	-0.052958347
188	0xbd9ab752	-0.07554497
189	0xbd27f218	-0.041002363
190	0xbcd5bf0f	-0.02609208
191	0xbd9ba701	-0.07600213
192	0x3dae4ba9	0.08510525
193	0xbd9fc30d	-0.07800875
194	0x3d78bcd7	0.060726967
195	0xbcf2ed31	-0.029654117
196	0xbda2960d	-0.07938776
197	0x3d0408fe	0.032235138
198	0x3bcc26e5	0.0062302225
199	0x3c15b7ee	0.009138091
200	0x3d70af27	0.05876079
201	0xbdae2dc5	-0.085048236
202	0xbd84788f	-0.06468307
203	0xbb719e94	-0.0036868202
204	0xbb2c8c84	-0.002632887
205	0xbd8ef2b7	-0.06979888
206	0xbc967516	-0.018366378
207	0xbcaf0c93	-0.0213683
208	0xbd85caa8	-0.06532794
209	0x3d0f73ce	0.03502255
210	0xbc8a054d	-0.01684823
211	0xbcc63b49	-0.024198191
212	0x3d7a9870	0.061180532
213	0xbd300f17	-0.04298314
214	0xbcd1ad45	-0.025595317
215	0xbd21e500	-0.039525032
216	0xbd7e3345	-0.062060613
217	0xbdac9424	-0.08426693
218	0x3d8d4965	0.068987645
219	0xbdb9648d	-0.09052382
220	0x3d808345	0.06275038
221	0x3d080e33	0.033216666
222	0x3d34ec42	0.044170626
223	0xbc85631a	-0.016282607
224	0xbda0ff05	-0.07861141
225	0xbd0a1183	-0.033708107
226	0xbd4de0b8	-0.050263137
227	0x3d8b21c3	0.06793549
228	0x3c76bf44	0.01506025
229	0xbdb33609	-0.08750541
230	0x3c77bcc4	0.015120689
231	0xbc02d8e5	-0.007986282
232	0x3d6c5687	0.057699706
233	0x3d882ce3	0.066491865
234	0x3d74b34a	0.059741296
235	0x3cfec1e4	0.031098314
236	0x3bafbb30	0.0053628907
237	0x3d6d47f1	0.057929937
238	0x3c12032d	0.00891189
239	0x3d8dfe4a	0.069332674
240	0xbd6fa67c	-0.05850838
241	0x3d6b47af	0.05744141
242	0x3d4379b9	0.047723506
243	0xbc8b47bf	-0.017001985
244	0xbd7fe0bc	-0.062470183
245	0xbd18c604	-0.037298217
246	0xbcbd5bae	-0.023115005
247	0x3d82f0c7	0.06393581
248	0x3ce878bd	0.028377885
249	0x3d9051a7	0.07046824
250	0xbd94bf1f	-0.07263016
251	0x3d4391fa	0.047746636
252	0xbe627b09	-0.22117247
253	0xbe0ce5bb	-0.1375951
254	0xbe811d58	-0.252177
255	0xbe530f26	-0.20611247

bias f4 [64]
0	0xbc0f7428	-0.008755721
1	0x3dbe198a	0.09282215
2	0x3c9475af	0.018122522
3	0x3d804cf9	0.06264681
4	0xbd966b87	-0.07344728
5	0xbd9a3219	-0.075290866
6	0x3d098940	0.033578157
7	0xbcf843e5	-0.030305812
8	0x3da747a4	0.08167961
9	0xbd6c6b51	-0.057719532
10	0xbdb3ec01	-0.087852485
11	0xbc8443a7	-0.01614554
12	0x3beecf42	0.0072878907
13	0xbd2d9d5f	-0.04238641
14	0x3d95c931	0.07313765
15	0xbda7edc1	-0.08199645
16	0xbcc1c5ed	-0.023653949
17	0xbd2aa442	-0.041660555
18	0x3d8364ef	0.06415736
19	0xbd15be34	-0.036558345
20	0xbd5243f0	-0.05133432
21	0xbc94db71	-0.018171044
22	0x3c8b5ea8	0.017012909
23	0x3d38bc84	0.045101658
24	0x3d3d1830	0.046165645
25	0x3ca7869f	0.020449935
26	0x3d8bf769	0.06834299
27	0x3d86d515	0.06583611
28	0xbad00a8b	-0.0015872283
29	0xbd14a562	-0.036290534
30	0xbdae637c	-0.08515069
31	0x3db1b1a8	0.08676463
32	0xbcfaf5f1	-0.030634852
33	0x3d235881	0.039879326
34	0x3d1f5506	0.038899444
35	0xbda841bc	-0.08215663
36	0xbd505823	-0.050865304
37	0xbc00a15e	-0.007850973
38	0x3d5f6cf3	0.05454726
39	0x3ce901de	0.028443273
40	0x3dae3c49	0.08507592
41	0x3d2dac37	0.042400565
42	0x3dc64de2	0.09682824
43	0x3be5c60c	0.0070121344
44	0x3d23a1aa	0.039949097
45	0x3d93155e	0.0718181
46	0x3d43155e	0.0476278
47	0x3cc955bf	0.02457702
48	0xbd30e519	-0.043187235
49	0xbcd33198	-0.025780484
50	0xbd9a507a	-0.07534881
51	0xbdadb42d	-0.084816314
52	0x3d1390b0	0.036026657
53	0x3dac1ba8	0.084037125
54	0x3d3c8d5b	0.046033245
55	0xbd425874	-0.047447637
56	0x3cc99404	0.024606712
57	0xbdb45102	-0.088045135
58	0x3d7ae8b5	0.061257083
59	0xbda1feee	-0.07909952
60	0xbcda273b	-0.026630035
61	0xbd07eaa3	-0.03318275
62	0xbd87bb19	-0.06627483
63	0x3db7e49e	0.08979152

weight f4 [64, 64, 2, 2]
0	0xbb21eb8d	-0.002470705
1	0xbb958b7c	-0.004563747
2	0x3cd1b8b9	0.025600778
3	0x3d871d6a	0.06597407
4	0x3b6ec4f6	0.0036433316
5	0x3c858ced	0.01630255
6	0x3d0c9d43	0.034329664
7	0x3ccdf705	0.025142202
8	0xbcb8f9b4	-0.022580005
9	0x3c22c7e1	0.00993535
10	0x3c26daa6	0.010183966
11	0x3ac6aace	0.0015157105
12	0x3b7329dd	0.003710381
13	0x3abf638a	0.0014601809
14	0xbcf4100c	-0.029792808
15	0xbc51819a	-0.012787247
16	0xbd06a042	-0.032867678
17	0xbaaa4000	-0.0012989044
18	0x3d2f83c6	0.04285028
19	0x3cbbbfdc	0.022918634
20	0xbd27a21c	-0.040926084
21	0xbd1e510c	-0.03865151
22	0x3cfbbfec	0.030731164
23	0xbc276b60	-0.010218471
24	0xbd573890	-0.052544177
25	0xbd5a527c	-0.05330132
26	0x3d337eda	0.043822147
27	0xbc967764	-0.018367477
28	0xbc0ad683	-0.008473995
29	0xbd5c34bb	-0.053761225
30	0x3c858338	0.016297922
31	0xba73b8e2	-0.0009297264
32	0x3d2fb419	0.042896364
33	0x3d3176a4	0.043326035
34	0xbb1285f3	-0.0022357672
35	0xbc6b6f52	-0.014369803
36	0x3d2818c6	0.04103925
37	0xbd8d46ec	-0.06898293
38	0xbd66efa7	-0.056380894
39	0xbd1dc5bb	-0.03851865
40	0x3c4f5bec	0.012656193
41	0x3d6dac1c	0.058025464
42	0x3d432814	0.047645643
43	0x3c9b651f	0.018969117
44	0xbd3edd20	-0.0465976
45	0xbd3372ee	-0.043810777
46	0x3cebbf5c	0.02877777
47	0x3b3f5688	0.0029195864
48	0xbcf16c02	-0.029470447
49	0xbd2b47f5	-0.04181667
50	0xbc9947e2	-0.018711034
51	0xbd05b22f	-0.032640632
52	0xbd568830	-0.052375972
53	0xbc80cadc	-0.01572173
54	0xbc3b299a	-0.011423493
55	0x3d2676d4	0.040640667
56	0xbcb58531	-0.022158237
57	0xbcb8c6b5	-0.022555688
58	0x3ce01e1f	0.027358113
59	0x3d812683	0.06306174
60	0xbb335500	-0.0027363896
61	0x3d579b34	0.052638248
62	0xbc9bcf34	-0.0190197
63	0x3b0a9ee0	0.0021151826
64	0x3c26f670	0.010190591
65	0x3cf8ea64	0.030385204
66	0x3cf0ffe0	0.029418886
67	0xbd6f7fae	-0.058471374
68	0xbd2eb976	-0.042657338
69	0x3d7efe1c	0.062254056
70	0xbd43252e	-0.04764288
71	0xbb61a140	-0.0034428388
72	0x3c9ae4cb	0.018907925
73	0xbd336cab	-0.043804806
74	0xbccd5e6d	-0.02506944
75	0x3d1024d0	0.035191357
76	0xbd4f0b08	-0.05054763
77	0x3cdf4810	0.027256042
78	0x3c733688	0.014844544
79	0x3cbd8d40	0.023138642
80	0x3cd4f1b8	0.025994167
81	0x3cce6197	0.025193019
82	0x3d59e420	0.053196073
83	0xbc87475f	-0.016513525
84	0xbd6436bc	-0.05571626
85	0x3c099620	0.008397609
86	0xbd59f104	-0.053208366
87	0xbd712da0	-0.058881402
88	0x3c27ad59	0.0102342
89	0xbba1075e	-0.0049142083
90	0xbc93e9c5	-0.018055806
91	0x3d71e1bc	0.059053168
92	0x3d486ca9	0.04893175
93	0x3d68217e	0.056672566
94	0x3d318154	0.043336228
95	0xbc45a37d	-0.012062904
96	0xbc963dc0	-0.018339992
97	0x3d8691ae	0.06570755
98	0x3d25be03	0.040464412
99	0x3d7cf534	0.06175728
100	0xbcfedd34	-0.031111337
101	0x3c634980	0.013872504
102	0xbc76b148	-0.015056916
103	0x3cf5c1f4	0.02999971
104	0xbc911443	-0.017709857
105	0x3d5045da	0.050847866
106	0x3d7ae054	0.061249092
107	0x3d4d6e22	0.05015386
108	0x3d748b5a	0.05970321
109	0xbd530f40	-0.051528215
110	0xbd50417a	-0.050843693
111	0xbd40e4d7	-0.04709324
112	0x3cee16c5	0.029063592
113	0xbc0cc00d	-0.00859071
114	0xbcde5322	-0.02713925
115	0x3d3f912d	0.04676931
116	0xbcc9cfd0	-0.024635226
117	0x3b205140	0.0024462491
118	0x3d3765cc	0.044774815
119	0xbd735124	-0.059403554
120	0xbc99044c	-0.018678807
121	0xbbca6b20	-0.006177321
122	0xbc3b6108	-0.011436708
123	0x3d6372a4	0.05552925
124	0x3d3f1f46	0.046660684
125	0x3d0b27e8	0.033973604
126	0x3caf90e3	0.021431392
127	0x3c023a2c	0.00794844
128	0x3d0a5009	0.033767734
129	0xbd0cb13e	-0.03434872
130	0xbd19a6ab	-0.037512463
131	0xbc9264f8	-0.017870411
132	0x3bbad1c0	0.0057012737
133	0x3d45ac65	0.04826011
134	0x38802e11	6.112096e-05
135	0x3d6f9f09	0.058501277
136	0x3c65c415	0.0140238
137	0xbc8bc518	-0.017061755
138	0xbcec5140	-0.028847337
139	0xbd0d8266	-0.034548186
140	0xbce23264	-0.027611919
141	0x3d622714	0.05521305
142	0xbc140298	-0.0090338215
143	0xbd702e34	-0.058637813
144	0xbcc4c824	-0.024021216
145	0x3c9c7dc9	0.019102948
146	0xbd617ccd	-0.05505066
147	0xbcee9c09	-0.029127138
148	0x3d29e717	0.04148015
149	0x3d5e2950	0.054238617
150	0xbd6382bd	-0.055544604
151	0xbd3c5f45	-0.045989294
152	0x3c0727bc	0.0082492195
153	0x3d7967f2	0.060890146
154	0xbd3cf931	-0.046136085
155	0x3d420c88	0.047375232
156	0x3c828d4c	0.015936516
157	0x3c036ce9	0.008021572
158	0x3c9e01ae	0.01928791
159	0xbcd07366	-0.025445651
160	0xbcec4b33	-0.028844452
161	0xbcd7b674	-0.026332118
162	0xbbe4e4a7	-0.0069852653
163	0x3d810a24	0.06300762
164	0xbd04a891	-0.03238732
165	0x3c21a345	0.009865587
166	0x3d8d6f3b	0.06905981
167	0xbd0e8307	-0.034792926
168	0x3ce5271c	0.02797275
169	0xbc1f3c02	-0.009718897
170	0x3b9284e4	0.004471408
171	0x3b98d9ce	0.004664636
172	0x3ce0aaf4	0.027425267
173	0x3d60d5f1	0.05489153
174	0x3d4081cf	0.046998795
175	0xbc10a57f	-0.00882852
176	0xbcbf3859	-0.023342298
177	0xbd2034f3	-0.039112996
178	0x3cd89315	0.026437322
179	0xbd388290	-0.04504639
180	0x3cf3c8ac	0.029758774
181	0x3c8ba379	0.017045723
182	0xbc342813	-0.010995883
183	0xbc925611	-0.017863305
184	0xbd664e07	-0.056226756
185	0xbbc891ac	-0.006120881
186	0xbcf6a591	-0.030108245
187	0xba371d8f	-0.00069853006
188	0xbc9c4d4f	-0.019079832
189	0x3d729a0d	0.059228946
190	0xbbe06304	-0.006847741
191	0xbd2a7529	-0.04161564
192	0xbc15278c	-0.009103667
193	0xbd58b88f	-0.052910384
194	0x3d09543c	0.033527598
195	0xbd5b2863	-0.053505313
196	0xbd47516a	-0.048661627
197	0xbd4a577d	-0.04939984
198	0xbd3d9368	-0.046283156
199	0xbc0062cc	-0.007836055
200	0x3d2b7598	0.041860193
201	0x3d78b9c3	0.06072403
202	0x3d8764f4	0.06611052
203	0x3cba25fb	0.022723189
204	0xbd37d428	-0.044880062
205	0xbcad8d4c	-0.02118554
206	0xbb91de80	-0.004451573
207	0x3d3e2388	0.046420604
208	0xbc9decaa	-0.01927789
209	0xbcf05c4c	-0.029340886
210	0xbcc0e94f	-0.02354875
211	0x3cd8392a	0.026394445
212	0x3cfbc5b2	0.030733917
213	0xbccc42f9	-0.024934279
214	0x3c168211	0.009186284
215	0x3c08759e	0.008328823
216	0xbd02145e	-0.031757705
217	0x3d40cb63	0.047068965
218	0xbd1cb376	-0.038257085
219	0x3d698794	0.057014063
220	0xbc5093f0	-0.012730584
221	0xbd1c1984	-0.03811027
222	0xbd7c6034	-0.061615184
223	0xbd461a2e	-0.04836481
224	0xbcec1793	-0.028819835
225	0xbc1f9d7f	-0.00974214
226	0x3d2026bf	0.03909945
227	0x3d5c1f92	0.053741045
228	0xbb128300	-0.0022355914
229	0xbd1c8186	-0.03820946
230	0x3d2fab1c	0.042887792
231	0x3cb518d4	0.022106566
232	0xbc92d3d0	-0.017923266
233	0x3c096146	0.008385008
234	0x3c910bbd	0.017705793
235	0xbca11969	-0.019665437
236	0x3d6d2c74	0.057903722
237	0x3c7d2458	0.01545056
238	0xbc527768	-0.0128458515
239	0xbd00416e	-0.0313124
240	0xbd6057d2	-0.054771252
241	0x3d202903	0.03910161
242	0x3c3d2e36	0.011546662
243	0xbcbc9ecb	-0.023024937
244	0xbd66ee01	-0.056379322
245	0xbd0663b9	-0.032809947
246	0x3d44bdea	0.04803268
247	0x3d43d6d7	0.04781231
248	0x3c8827d0	0.016620547
249	0x3d4ebe0c	0.05047421
250	0xbd04a9f0	-0.032388628
251	0x3b3a3a80	0.0028416216
252	0x3c9e1c58	0.019300625
253	0x3d727681	0.059195045
254	0xbcf27030	-0.02959451
255	0x3c8c98d2	0.017162714

bias f4 [64]
0	0x3d662d4c	0.056195542
1	0xbd446750	-0.04795009
2	0xbd01904f	-0.031631764
3	0xbc1729e2	-0.009226294
4	0x3d5263e7	0.051364806
5	0xbd61f56e	-0.0551657
6	0xbd018d6e	-0.03162902
7	0x3d6cca8c	0.05781035
8	0xbcc88fdc	-0.02448266
9	0x3d31fc5b	0.043453556
10	0xbd47a736	-0.04874345
11	0x3d97281b	0.073806964
12	0xbcc2232f	-0.023698417
13	0x3cc98243	0.024598246
14	0xbc2461f3	-0.010033119
15	0xbc2de111	-0.010612742
16	0x39dedec5	0.00042509116
17	0xbcac8ba1	-0.021062674
18	0xbd8abc93	-0.06774249
19	0xbd93e8b4	-0.07222119
20	0x3d001265	0.031267542
21	0xbbbc8a03	-0.005753757
22	0xbd521256	-0.051287018
23	0xbd8dd4b1	-0.06925333
24	0x3d305302	0.043047912
25	0x3a2005ba	0.0006104369
26	0xbd94daa6	-0.072682664
27	0x3c7f0c8b	0.015566955
28	0x3c29347e	0.0103274565
29	0x3c0eb124	0.008709226
30	0xbd3751c4	-0.044755712
31	0x3b232477	0.002489356
32	0x3d4bb6c6	0.049734853
33	0x3d6e7194	0.058213785
34	0x3d969e56	0.07354419
35	0x3c67b72d	0.014142794
36	0x3d91dfb8	0.07122749
37	0x3cde9c57	0.027174158
38	0xbccacebe	-0.024756785
39	0x3cbaa8b2	0.022785518
40	0xbd0750ba	-0.03303597
41	0x3d42fd82	0.047605045
42	0xbd568acb	-0.052378457
43	0xbd694eb4	-0.056959823
44	0xbc54ea38	-0.012995295
45	0x3b9173a8	0.004438836
46	0xbcb090f8	-0.021553501
47	0x3d891a8c	0.066945165
48	0xbd850486	-0.064950034
49	0xbd062feb	-0.032760542
50	0x3c36de00	0.011161327
51	0x3d05c2db	0.03265653
52	0xbc95bda2	-0.0182789
53	0x3c50416e	0.012710912
54	0xbd40bfef	-0.047058042
55	0xbd8e09e7	-0.069354825
56	0x3d279f9a	0.040923692
57	0xbd5db11a	-0.054123975
58	0x3b7b6e39	0.0038365258
59	0x3cb0ae13	0.02156738
60	0x3d0b78dc	0.034050807
61	0x3bbfb8ee	0.0058509028
62	0xbce448d4	-0.027866758
63	0x3ca6ba61	0.020352544

weight f4 [128, 64, 2, 2]
0	0xbd7c8832	-0.061653323
1	0xbcc41e1a	-0.023940135
2	0x3d71db11	0.05904681
3	0x3d3ef02a	0.046615757
4	0xbd425962	-0.047448523
5	0xbccd1b92	-0.02503756
6	0x3c70f6a5	0.014707242
7	0xbcae4ff6	-0.021278363
8	0xbc4064e1	-0.011742801
9	0xbd624576	-0.055242024
10	0xbc2d21a0	-0.010567099
11	0xbd6802b9	-0.05664322
12	0xbd630dd7	-0.05543312
13	0xbcd10363	-0.02551431
14	0xbd83e3ad	-0.0643991
15	0xbd15bd73	-0.036557626
16	0x3d1c7508	0.038197547
17	0xbd1fe7bb	-0.039039355
18	0x3d02d208	0.031938583
19	0xbd603129	-0.054734383
20	0xbca531f2	-0.020165417
21	0x3c9a7740	0.018855691
22	0xbd6c8699	-0.05774555
23	0xbd5fc7ba	-0.054633833
24	0xbb924388	-0.0044636168
25	0x3d0369b7	0.03208324
26	0x3c57380b	0.01313592
27	0x3c6fdaed	0.014639598
28	0x3d6f3e8b	0.058409255
29	0x3d4c7461	0.049915675
30	0x3d6689c0	0.056283712
31	0x3c04d1a8	0.008106627
32	0x3d25f7c9	0.04051951
33	0xbcbbca8d	-0.022923732
34	0xbcb99fe0	-0.022659242
35	0xbd8b3ed5	-0.06799094
36	0x3be67340	0.007032782
37	0x3cfb07a3	0.03064329
38	0xbd18bc7c	-0.037289128
39	0xbd80bb34	-0.06285706
40	0xb8fe81d6	-0.00012135848
41	0xbd4a4fbe	-0.049392454
42	0x3bfe6c5f	0.0077643837
43	0xbb232dda	-0.0024899156
44	0x3d4bed33	0.049786758
45	0xbb6ffc74	-0.003661898
46	0x3b333215	0.0027343084
47	0x3b9fa701	0.0048722033
48	0x3c16c272	0.009201633
49	0xbc462bae	-0.012095375
50	0xbcd1450b	-0.025545618
51	0x3d1e8197	0.038697805
52	0xbd832b0e	-0.064046964
53	0x3cf613a3	0.03003866
54	0xbc53583b	-0.012899454
55	0xbd765380	-0.060138226
56	0x3d1422a9	0.036165867
57	0xbca36f5a	-0.019950558
58	0x3d001980	0.03127432
59	0xbc8fc01a	-0.017547656
60	0xbd3393db	-0.043842178
61	0x3d670f28	0.05641094
62	0xbc2bfd7f	-0.01049745
63	0x3d93b629	0.07212479
64	0xbd3a9d7d	-0.04556035
65	0x3d723e16	0.05914124
66	0xbd55118e	-0.052018695
67	0xba082e2b	-0.0005194868
68	0xbcaf96df	-0.021434246
69	0xbd1750e1	-0.036942367
70	0x3d69687b	0.056984406
71	0xbc2b68c6	-0.010461992
72	0x3cc7f383	0.024408108
73	0xbcb3a522	-0.021929327
74	0x3d36dbd9	0.044643257
75	0x3d0b7e23	0.03405584
76	0xbcac1f23	-0.02101094
77	0xbd650caf	-0.0559203
78	0xbd3289a4	-0.043588296
79	0x3c7781fc	0.015106674
80	0xbcc3874c	-0.023868226
81	0xbd03d435	-0.0321848
82	0xbd503ed7	-0.05084118
83	0x3a422fdd	0.0007407645
84	0xbc7637c8	-0.015027948
85	0x3d5bed38	0.053693026
86	0xbd699ba9	-0.057033215
87	0xbd48eb5e	-0.04905259
88	0xbd134ebe	-0.035963766
89	0xbb6a187f	-0.0035720167
90	0xbd1139f8	-0.035455674
91	0x3d28b993	0.041192602
92	0xbd0f4eb3	-0.034987163
93	0xbd20cdf5	-0.039258916
94	0x3d0b81d4	0.03405936
95	0xbd80e216	-0.062931225
96	0x3d40df3d	0.047087897
97	0xbc0ae516	-0.00847747
98	0x3ca5c054	0.02023331
99	0x3d7a82a7	0.061159756
100	0xbcdce8fd	-0.026966566
101	0xbcc961c4	-0.024582751
102	0x3a5303d7	0.00080495834
103	0x3ce55acc	0.027997397
104	0xbd1c29d7	-0.03812584
105	0x3c9e999f	0.019360362
106	0x3d008bfb	0.031383496
107	0xbcf1b7fa	-0.029506672
108	0xbd218022	-0.039428838
109	0xbd49ab50	-0.049235642
110	0x3d391fa8	0.045196205
111	0xbbe74a40	-0.007058412
112	0x3bcdfa34	0.00628593
113	0x3d214852	0.03937561
114	0x3be29025	0.006914156
115	0x3b7b46a2	0.003834166
116	0xbd9d9839	-0.0769505
117	0x3c68b271	0.0142027
118	0xbd32e069	-0.043671045
119	0xbdb42e78	-0.08797926
120	0x3d008bcc	0.03138332
121	0xbd5b78f1	-0.053582136
122	0xbd49452d	-0.049138237
123	0x3d0a8038	0.033813685
124	0x3d087a00	0.033319473
125	0xbd30a25c	-0.043123588
126	0x3d18b7ec	0.037284777
127	0x3c5037f8	0.0127086565
128	0x3d05ecaf	0.032696422
129	0xbd702c67	-0.058636095
130	0x3ba6b264	0.005087184
131	0x3aaa8d2d	0.0013012044
132	0x3d52c97c	0.05146168
133	0xbcc18481	-0.023622753
134	0xbc8f5014	-0.017494239
135	0x3c19e7b9	0.009393626
136	0xbc04863b	-0.008088644
137	0x3d724c6b	0.05915491
138	0xbd6fa6ea	-0.05850879
139	0xbd5763cf	-0.05258542
140	0x3bce6830	0.006299041
141	0xbc3a8507	-0.011384255
142	0xbd7e1a62	-0.06203688
143	0xbd86c8bd	-0.065812565
144	0xbc540797	-0.012941263
145	0xbcc197a2	-0.023631874
146	0x3c9ccef8	0.01914166
147	0xbd71b207	-0.05900767
148	0xbd663228	-0.056200176
149	0x3d0e26a1	0.03470481
150	0x3c8d0c3a	0.017217744
151	0xbd54e90c	-0.051980063
152	0xbd159a2e	-0.03652399
153	0xbabe2244	-0.0014506062
154	0x3d15829c	0.036501512
155	0xbd080af4	-0.03321357
156	0xbc0a31ee	-0.008434756
157	0xbd041805	-0.03224947
158	0x3d0a6b1c	0.033793554
159	0xbd60dbb8	-0.05489704
160	0xbb2d3d6f	-0.0026434322
161	0x3d26140d	0.040546466
162	0x3d35ed2c	0.044415638
163	0x3d1576a3	0.036490094
164	0xbd1754a3	-0.03694595
165	0x3d4b56f9	0.04964349
166	0x3caf14ce	0.021372225
167	0x3d132198	0.03592071
168	0x3c397ad0	0.011320785
169	0xbc644da5	-0.0139345275
170	0xbc9c3601	-0.01906872
171	0x3c0f14bb	0.00873297
172	0x3d230cbb	0.039807063
173	0xbd381687	-0.04494336
174	0xbd74f71f	-0.059805986
175	0xbc9ff3c0	-0.019525409
176	0xbd16afbf	-0.0367887
177	0xbd6fe77f	-0.05857038
178	0x3ca2c6a4	0.01987011
179	0x3d6da562	0.05801905
180	0xbd14f9d8	-0.036371082
181	0xbc5c45cc	-0.013444375
182	0x3b320c59	0.0027168004
183	0x3d73e6e3	0.059546363
184	0xbc8ba904	-0.017048366
185	0xbd8a0e6a	-0.067410305
186	0xbd3eb8ca	-0.046562947
187	0xbd467dbd	-0.048459757
188	0x3bcf1910	0.0063201264
189	0xbd637d8d	-0.055539656
190	0xbd34534b	-0.044024747
191	0x3cff0c1c	0.031133704
192	0x3d2154ef	0.03938764
193	0xbc809bfe	-0.015699383
194	0x3c93bc23	0.018034047
195	0xbd83c3d6	-0.06433837
196	0xbd820449	-0.063484736
197	0x3c82e221	0.015976967
198	0x3d551459	0.05202136
199	0xbd624221	-0.055238847
200	0xbd8f6606	-0.07001881
201	0x3c1489b1	0.009066031
202	0x3d243d94	0.040097788
203	0xbd32110e	-0.043473296
204	0xbc680f90	-0.014163867
205	0x3d440a8a	0.047861613
206	0xbd978e87	-0.07400232
207	0xbd8649bf	-0.06557035
208	0xbc020931	-0.007936762
209	0x3d649537	0.055806365
210	0x3cbc809b	0.023010543
211	0x3d45f855	0.04833253
212	0x3c2a93b3	0.010411191
213	0xbd02cbae	-0.031932525
214	0xbd0796be	-0.033102743
215	0xbc9dd805	-0.019268045
216	0xbd2953c1	-0.04133964
217	0xbd4a575c	-0.04939972
218	0xbcf49ece	-0.02986088
219	0xbd998185	-0.07495407
220	0xbced3efc	-0.028960697
221	0x3a8a76bc	0.001056395
222	0xbd2f1fa6	-0.04275479
223	0xbd6ded0c	-0.058087394
224	0xbd5d7526	-0.0540668
225	0x3c5aecd3	0.013362127
226	0x3bae5a3d	0.005320816
227	0x3d735a4e	0.059412293
228	0x3c07628c	0.0082632415
229	0xbd773e82	-0.060362346
230	0x3bd289a0	0.0064250976
231	0xbd0a98cb	-0.03383712
232	0xbcc956c8	-0.024577513
233	0xbb9801a8	-0.0046388693
234	0xbd2264b2	-0.03964681
235	0xbcbcde28	-0.023055151
236	0x3d2933e7	0.041309264
237	0x3d678858	0.056526512
238	0x3c7dccba	0.015490705
239	0xbd6ab3ef	-0.057300504
240	0xbc884f22	-0.016639296
241	0xbd0afb4c	-0.03393106
242	0xbd70e770	-0.058814466
243	0xbd3fd363	-0.046832453
244	0x3d3f5a3e	0.04671692
245	0xbd74892e	-0.059701137
246	0xbd51ccf4	-0.05122085
247	0x3d2b630b	0.0418425
248	0x3bc8fa19	0.0061333296
249	0xbd48e1c4	-0.049043432
250	0x3bbff556	0.0058581037
251	0xb9ae7a64	-0.00033279054
252	0x3d2174e4	0.039418116
253	0xbd77fe92	-0.06054551
254	0xbb1ad070	-0.0023622774
255	0x3ce7c837	0.028293712

bias f4 [128]
0	0xbc3b3fb0	-0.0114287585
1	0x3cddeb5d	0.027089769
2	0xbd29a550	-0.04141742
3	0x3d1680eb	0.03674404
4	0xbd092dfa	-0.033491112
5	0x3d91d5fb	0.07120892
6	0x3cf886a2	0.030337635
7	0xbca3ed30	-0.02001056
8	0x3d829455	0.06375948
9	0x3cbb3690	0.022853166
10	0x3d5d5702	0.054038055
11	0x3cbe3f64	0.023223586
12	0xbd46370c	-0.04839234
13	0x3d5db48d	0.054127265
14	0x3cd29ce3	0.025709575
15	0xbd46ca3f	-0.04853272
16	0xbd7d0e68	-0.061781317
17	0xbd457ffb	-0.048217755
18	0x3c98ad9e	0.018637475
19	0x3d5b5177	0.053544488
20	0xbbbd23fd	-0.0057721124
21	0x3ca181a3	0.019715136
22	0x3c889cbd	0.016676301
23	0xbd077d28	-0.033078343
24	0x3d3a0bc6	0.045421384
25	0x3d6fbe65	0.058531184
26	0xbd124363	-0.035708796
27	0xbd60ff31	-0.05493087
28	0x3d81f40e	0.06345378
29	0xbd0ee961	-0.034890536
30	0xbd779c32	-0.060451694
31	0x3d7d0387	0.061770942
32	0xbd7f18ca	-0.0622795
33	0xbd87a762	-0.066237226
34	0xbd2595d7	-0.0404261
35	0x3d858ff2	0.06521596
36	0xbc74620c	-0.014915954
37	0xbd362c6a	-0.04447595
38	0x3b85cc98	0.0040832274
39	0x3b04f364	0.0020286674
40	0x3d0f276d	0.03494971
41	0xbc519d41	-0.01279384
42	0x3d51bed9	0.051207397
43	0x3d7abce5	0.0612153
44	0x3d3514ed	0.04420941
45	0xbcfeabc2	-0.03108776
46	0xbd1e9987	-0.038720634
47	0x3d6ee641	0.058325056
48	0x3d3a2b76	0.045451604
49	0xbc6a5fec	-0.014305096
50	0xbcc59e65	-0.02412338
51	0x3d2e9c8f	0.042629775
52	0xbd61f20c	-0.055162475
53	0x3c94ef98	0.018180653
54	0x3b2f9f5d	0.0026797869
55	0xbd46cfb3	-0.04853792
56	0x3d97a996	0.07405393
57	0x3d4e5db7	0.050382342
58	0xbc60dc5e	-0.013724415
59	0xbda3ac3a	-0.07991834
60	0xbca21cea	-0.019789178
61	0xbcc9b110	-0.024620563
62	0xbd2b2c38	-0.041790217
63	0x3d9a78b0	0.075425506
64	0x3c9ea26c	0.019364558
65	0xbd4fa6cd	-0.050696183
66	0xbc9c315e	-0.019066509
67	0xbd008eb1	-0.03138608
68	0x3d78169c	0.060568437
69	0x3c3bb108	0.011455782
70	0x3d585e8a	0.052824534
71	0xbd1eee54	-0.038801506
72	0xbcce4204	-0.025177963
73	0x3d43f1ba	0.04783795
74	0x3d37cba1	0.04487193
75	0x3d785a89	0.060633216
76	0x3c88230f	0.01661828
77	0xbcbbce0c	-0.0229254
78	0xbd395d8b	-0.045255225
79	0x3cc2c39c	0.023774914
80	0xbcaa041c	-0.020753913
81	0xbd530978	-0.051522702
82	0xbd2301f8	-0.0397968
83	0x3ccf3c1f	0.025297223
84	0xbcd7ec4a	-0.026357789
85	0xbc8ee7e9	-0.017444568
86	0x3cbf256a	0.02333327
87	0x3d6a84b4	0.05725546
88	0xbd76cfbe	-0.060256712
89	0xbd0974f6	-0.03355881
90	0xbd5bde84	-0.053679004
91	0x3d2eb0d9	0.042649124
92	0xbce947c7	-0.028476609
93	0x3d0bdd7c	0.03414677
94	0x3d40954c	0.04701738
95	0xbcdec3c7	-0.027192963
96	0x3c3bd7c9	0.011465021
97	0x3d10d27f	0.035356995
98	0xbd8cd886	-0.06877236
99	0xbd876d69	-0.06612665
100	0x3ca48337	0.0200821
101	0x3b27a3c3	0.0025579787
102	0x3b009421	0.0019619542
103	0x3d87abc7	0.06624561
104	0xbc48dcf0	-0.012259707
105	0xbd75e304	-0.060030952
106	0x3d3699e8	0.04458037
107	0xbd1dd514	-0.038533285
108	0x3c4d8585	0.012544041
109	0x3cbc7a50	0.023007542
110	0xbd6b5539	-0.05745432
111	0x3c67d34a	0.014149496
112	0x3d013c8a	0.031551875
113	0xbd48555d	-0.048909534
114	0xbd2697a5	-0.040671963
115	0xbd4900af	-0.049072918
116	0x3d49089b	0.049080472
117	0x3c0839f0	0.008314595
118	0x3d8f75dc	0.07004902
119	0xbcd50ae3	-0.026006168
120	0xbd90123f	-0.0703473
121	0xbc990ba8	-0.018682316
122	0x3cb2446c	0.021761142
123	0x3d264539	0.04059336
124	0xbd589fa0	-0.052886605
125	0xbd2caf8f	-0.042159613
126	0x3d963167	0.073336415
127	0xbd2776d2	-0.0408848

weight f4 [128, 128, 2, 2]
0	0xbcba6499	-0.022753047
1	0xbd0e1742	-0.03469015
2	0xbcb7e065	-0.022445867
3	0xbc34495b	-0.011003817
4	0x3a350a9c	0.0006906183
5	0x3c8c7eac	0.017150246
6	0xbc99c116	-0.018768828
7	0xbc1dd5bf	-0.009633481
8	0x3c28fc34	0.010314036
9	0xbcab2995	-0.020893851
10	0xbd107fca	-0.03527812
11	0xbcb4e4ef	-0.02208182
12	0x3ca1891b	0.019718697
13	0xbcf20202	-0.029541973
14	0x3ce44b6a	0.027867991
15	0xbc98cc39	-0.018652068
16	0x3c4f5feb	0.012657146
17	0xbc867779	-0.01641439
18	0xbaed263e	-0.0018093062
19	0x3d2b2b06	0.041789077
20	0xbd18e257	-0.03732523
21	0xbca9cfd6	-0.020728987
22	0xbc94658f	-0.018114833
23	0xbb001ba6	-0.001954773
24	0xbb6e7bc7	-0.0036389695
25	0x3d1c232e	0.038119487
26	0x3d29e501	0.04147816
27	0xbce00e06	-0.027350437
28	0x3ca27304	0.019830234
29	0xbceeb395	-0.029138366
30	0x3cc14fcc	0.02359762
31	0xbd2b4bac	-0.041820213
32	0x3d707a0e	0.05871015
33	0x3d1a8644	0.037725702
34	0xbd236ecd	-0.03990059
35	0x3c1bab4c	0.00950129
36	0x3b0f8e05	0.0021904719
37	0xbd0c58d3	-0.034264397
38	0xbbc14941	-0.005898625
39	0xbbd2c3f5	-0.0064320513
40	0xbd0fed17	-0.035138216
41	0x3d10adfc	0.035322174
42	0x3ca49077	0.020088417
43	0x3d2c9645	0.042135496
44	0x3cfd70a9	0.03093751
45	0xbc4c36ae	-0.0124642085
46	0xbc2f54a4	-0.010701332
47	0xbcc7d52a	-0.024393637
48	0xbcc9ba52	-0.024624977
49	0x3c8bf7f3	0.017086005
50	0x3b64b98b	0.0034900631
51	0x3d2bd4cb	0.041950982
52	0xbb8856fd	-0.0041607604
53	0x3cb38f52	0.021918926
54	0xbd3ddd77	-0.046353783
55	0xbc33e0b2	-0.0109788645
56	0xbcb7b46c	-0.022424899
57	0xbd05f867	-0.032707598
58	0xbd21f0c5	-0.039536256
59	0xb94c3212	-0.00019473609
60	0xbb1f9680	-0.002435118
61	0xbd250953	-0.040292095
62	0x3cf609a3	0.030033892
63	0x3cc9a3de	0.02461427
64	0x3d0e96fa	0.03481195
65	0x3b924493	0.004463741
66	0xbbd1836b	-0.00639384
67	0x3d319826	0.04335799
68	0xbbdf691a	-0.006817949
69	0x3c53b998	0.012922667
70	0xbc828ad0	-0.015935332
71	0xbcb77d3d	-0.022398585
72	0xbd2eb700	-0.04265499
73	0x3d4f3970	0.050591886
74	0xbc52a712	-0.0128572155
75	0x3d2c0c2c	0.042003796
76	0xbd287e48	-0.041136056
77	0x3cba61ea	0.022751767
78	0xbd321a99	-0.043482397
79	0xbce35be3	-0.027753776
80	0xbd1fbb84	-0.03899719
81	0xbcd919b3	-0.026501512
82	0xbc59f507	-0.013303048
83	0xbd02417c	-0.031800732
84	0x3cffe990	0.031239301
85	0xbd203134	-0.039109424
86	0xbbec0ebe	-0.007203906
87	0xbd203cb4	-0.03912039
88	0x3bf3bf3e	0.0074385693
89	0xbc1596c0	-0.00913018
90	0xbccf618f	-0.025315074
91	0xbb99cdc3	-0.004693718
92	0xbcb4698a	-0.022022981
93	0xbcc3481e	-0.0238381
94	0x3b231a20	0.0024887398
95	0xb7edad20	-2.833322e-05
96	0xbc44a3a3	-0.012001905
97	0x3d2e43ea	0.042545237
98	0xbcb325b6	-0.021868568
99	0xbc5912a4	-0.013249073
100	0xbcd4854b	-0.025942465
101	0xb9f1b10a	-0.00046099006
102	0x3cf160bb	0.02946507
103	0x3d370a37	0.044687476
104	0x3d178a25	0.03699698
105	0xbc25515c	-0.010090198
106	0xbc378d61	-0.011203141
107	0x3cd96301	0.026536467
108	0xbbf7f494	-0.007566998
109	0x3ce3d097	0.027809424
110	0x3cfaa62e	0.030596819
111	0x3d33141d	0.043720353
112	0xbc123dd4	-0.008925874
113	0xbc6f8803	-0.01461983
114	0x3be81b8a	0.007083361
115	0x3d097190	0.033555567
116	0xba49b49e	-0.00076944556
117	0xbc023aaa	-0.007948557
118	0xbc1d9b80	-0.009619594
119	0x3d07fc09	0.033199344
120	0xbd286581	-0.041112427
121	0x3b8985be	0.0041968515
122	0x3ca3ca10	0.019993812
123	0x3c947a83	0.018124824
124	0x3c77ed16	0.015132209
125	0x3b1ab081	0.002360374
126	0x3d3a5e51	0.045500103
127	0xbc246a65	-0.010035132
128	0xbb96b34e	-0.0045990115
129	0x3ce68308	0.028138652
130	0xbcc9bb9f	-0.024625598
131	0xbd08e2a8	-0.03341928
132	0x3b5052c0	0.0031787604
133	0xbca2586e	-0.019817557
134	0xbc9fe496	-0.019518178
135	0xbcaece76	-0.021338683
136	0xbc7e7857	-0.015531621
137	0xbd087a01	-0.033319477
138	0xbb619bd1	-0.003442515
139	0x3d3de4ff	0.046360966
140	0xbd08169b	-0.033224683
141	0x3caaed0b	0.020864984
142	0x3cc44dfc	0.023962967
143	0xbc36eb38	-0.011164479
144	0xbcef4bbf	-0.029210923
145	0x3ca304a5	0.019899676
146	0x3bdf9da7	0.0068242135
147	0x3d049c3e	0.032375567
148	0x3cacc686	0.021090757
149	0xbb50a34f	-0.003183562
150	0x3c165696	0.009175917
151	0xbb521318	-0.0032054838
152	0xbd05d6b0	-0.032675445
153	0x3d022cba	0.031780936
154	0x3d05b245	0.032640714
155	0x3c25359e	0.010083584
156	0x3cf5f2ca	0.030022997
157	0x3ba1421c	0.004921211
158	0x3c9a6307	0.018846048
159	0xbd0a1f34	-0.033721164
160	0x3c68e310	0.014214292
161	0x3c844ee6	0.016150903
162	0xbcabb3f7	-0.020959837
163	0x3b141201	0.002259374
164	0xbcf7dabc	-0.030255668
165	0xbcf9ceeb	-0.030494174
166	0x3cf2025a	0.029542137
167	0xbd312055	-0.043243725
168	0xbb9ff5f7	-0.004881616
169	0xbd177f05	-0.03698637
170	0x3d1cb7fe	0.038261406
171	0xbcf37273	-0.02971766
172	0x3d3d0cfa	0.046154954
173	0x3cb148d1	0.021641167
174	0x3d04852e	0.032353573
175	0x3c90fc2f	0.017698376
176	0xbbf0d9f2	-0.0073502
177	0xbcb12776	-0.021625262
178	0x3bfdc008	0.007743839
179	0xbd1248f5	-0.03571411
180	0x3c698df1	0.014255033
181	0x3c7445de	0.014909236
182	0x3ac26839	0.0014832086
183	0x3cb47efb	0.022033205
184	0x3d21ed1e	0.039532773
185	0x3cba1f49	0.022719996
186	0x3cebe560	0.028795898
187	0xbbf5a066	-0.0074959276
188	0xbc602b47	-0.013682193
189	0xbcc14818	-0.023593947
190	0xbcb7fae9	-0.02245851
191	0x3c2cc500	0.010545015
192	0xbd016586	-0.03159096
193	0xbc976862	-0.01848239
194	0x3d1ead83	0.038739692
195	0xbc0b8ad9	-0.008516991
196	0x3cabc4cb	0.020967862
197	0x3cd91686	0.026499998
198	0xbd079a78	-0.033106297
199	0xbd157e32	-0.036497302
200	0x3cc5d2be	0.024148341
201	0x3cb847db	0.0224952
202	0x3d476369	0.04867879
203	0x3d344d90	0.044019282
204	0x3c73e637	0.01488643
205	0x3c6ae305	0.014336352
206	0xbaf079d5	-0.0018346856
207	0x3cc01f2b	0.023452362
208	0xbd0cd3d5	-0.034381706
209	0x3b30667b	0.0026916552
210	0x3bb63af7	0.0055612284
211	0x3c02098a	0.007936845
212	0xbd13798f	-0.0360046
213	0xbc0572cc	-0.0081450455
214	0xbc6cd813	-0.014455813
215	0x3d31103f	0.043228384
216	0x3cc9ff69	0.024657922
217	0x3c5cbecd	0.013473225
218	0x3d077728	0.03307262
219	0x3cd574b7	0.02605663
220	0xbd2296de	-0.03969466
221	0x3cbb41e9	0.022858577
222	0x3ba01057	0.0048847604
223	0xbd3913c2	-0.04518486
224	0x3d0a7c49	0.033809934
225	0xbc6be5a1	-0.0143980095
226	0x3cf8d3e1	0.03037447
227	0xbc8c9a00	-0.017163277
228	0x3d1d72d3	0.038439583
229	0x3b27419c	0.0025521284
230	0x3d0a8c9e	0.03382551
231	0x3d1b1d9d	0.03787004
232	0xbbe379ef	-0.006942026
233	0xbcf6c022	-0.030120913
234	0x3cf189ad	0.029484594
235	0x3ca21f1c	0.019790225
236	0xbd08398e	-0.033258013
237	0x3d2eef5b	0.042708736
238	0x3d008435	0.031376082
239	0xbd091d51	-0.033475224
240	0x3c2d9784	0.010595206
241	0xbc8b16bd	-0.016978616
242	0x3cabd98c	0.020977758
243	0x3d0261e0	0.031831622
244	0x3ceb675a	0.028735805
245	0x3d2de772	0.04245705
246	0x3d4f746a	0.05064813
247	0x3d1433e1	0.036182288
248	0x3c8bfdb6	0.017088752
249	0xbc8d08b5	-0.017216066
250	0xbd29ce71	-0.041456643
251	0xbce7605c	-0.02824419
252	0x3cdd7bbb	0.027036538
253	0x3bc8ccad	0.006127915
254	0x3d0142e1	0.03155792
255	0x3bb4e3e1	0.0055203293
